actividad_4/dnn_processor/etc/my_network.pt (torch, 903671 bytes, 8 tensors)

conv1.weight f4 [32, 1, 3, 3]
-0.37606025 -0.32933697 -0.37954202 -0.041454416 -0.16940142 -0.19749604 0.2659815 0.08087987
-0.46598598 0.016029088 0.25169617 -0.2167792 -0.28571218 -0.38246983 0.013469554 -0.006936634
-0.10351536 -0.19747609 -0.019757032 -0.01867374 -0.10641136 0.17265436 -0.11911423 -0.4920301
0.2757698 0.3228264 0.3504294 0.20119558 -0.046189718 0.09654835 -0.1327794 0.2631436
-0.24345298 -0.3005256 0.1183704 0.14590965 0.34962362 0.26916644 0.055905055 0.16204847
-0.24636301 -0.26179847 0.06173905 -0.43803242 -0.008321306 0.038342472 0.2967756 -0.022091622
0.2544084 -0.096449874 -0.009304152 0.19028512 0.1721506 0.21138214 -0.30786481 -0.054525305
0.08467201 0.09004748 0.29663172 0.07895497 0.05713822 -0.20004275 -0.068212286 0.15628144
0.090871 -0.036334943 0.19609793 0.35277975 0.11435394 -0.59580994 -0.29575178 -0.022159666
0.01781326 0.19652514 0.20685522 0.22559573 0.23470095 -0.31692475 -0.06195184 -0.13971908
-0.15968864 -0.42021778 0.20222437 0.26930675 0.18666762 0.20517953 -0.18097329 0.28000757
0.023933828 -0.29892877 0.3460946 0.25015613 -0.40383136 0.26139003 0.086690255 -0.52334356
0.18410155 0.0292133 -0.29823157 -0.27516237 0.2085974 0.31033045 -0.25652945 -0.38182
-0.050105613 -0.061545584 -0.33657727 -0.36444074 0.39296636 0.027946848 -0.4859843 0.4636891
-0.27193314 -0.34277955 -0.100668944 -0.41226736 -0.13457519 0.0028580902 -0.08150534 -0.50454736
0.1297555 0.1581917 -0.42047918 0.34243327 0.3477691 -0.0033687002 0.04036462 0.29879403
-0.37627444 0.11019409 -0.047476858 -0.2928938 0.39038762 -0.0025598994 -0.21388708 0.21391685
0.22402607 -0.15554985 -0.065903135 0.2951793 0.25509223 -0.4686376 -0.23832485 -0.080202475
-0.2981345 0.255583 -0.13579775 -0.09475271 0.20029745 0.09966073 0.20904735 0.049391344
0.13269757 0.22198577 0.0052677253 0.08499706 0.07714227 0.1828749 -0.34152618 0.25761718
-0.2252564 -0.27549767 -0.13046937 0.2504993 0.08531776 -0.39416188 0.16780129 0.2770867
-0.30461663 -0.021642987 0.15486763 0.22020802 -0.16565911 -0.41690385 0.1395963 0.3978493
-0.34575373 -0.071975306 0.1524775 0.32958412 -0.07430734 -0.4733084 -0.26997057 0.34617168
-0.30815497 0.35265788 0.352693 0.22402456 -0.22801228 -0.30253917 -0.27534753 -0.45003593
0.16673647 0.064621545 -0.063608356 0.17050365 0.15069439 0.37471083 0.04369459 -0.48733214
-0.36299384 -0.110148504 -0.219605 0.12065621 0.2703097 0.4701603 0.25337264 0.055219054
0.045130152 -0.1456365 -0.3317743 -0.25239325 -0.4071336 -0.003297911 -0.3851473 -0.22152814
-0.24043564 -0.42874262 0.039343566 -0.21529399 0.29057714 0.04491932 -0.09185664 0.43727896
0.02433855 -0.34449047 -0.07762311 -0.3001212 -0.023374595 -0.35362983 -0.36542162 -0.15586148
0.119358644 -0.35817513 -0.34371492 0.251124 0.032764167 0.15611102 -0.13200222 0.3276228
0.047237895 -0.3757333 -0.096339114 -0.0012464105 0.3342996 0.39836106 -0.37502298 -0.58125263
-0.29410848 0.25748926 0.12691422 -0.1758902 -0.42099956 0.0891583 0.21215312 -0.24075149
00000000: f88a c0be db9e a8be 5553 c2be 1bcc 29bd
00000010: 9177 2dbe 673c 4abe ba2e 883e 58a4 a53d
00000020: b795 eebe 6f4f 833c 52de 803e 5efb 5dbe
00000030: de48 92be 16d3 c3be 67af 5c3c b44c e3bb
00000040: dcff d3bd 2c37 4abe 80d9 a1bc acf9 98bc
00000050: 33ee d9bd 4ecc 303e 29f2 f3bd 5feb fbbe
00000060: b331 8d3e 8049 a53e 7b6b b33e 3706 4e3e
00000070: 6e31 3dbd 24bb c53d 53f7 07be c2ba 863e
00000080: bd4b 79be 7ede 99be 2e6c f23d 5769 153e
00000090: de01 b33e 2fd0 893e b3fc 643d 09f0 253e
000000a0: 9646 7cbe 730a 86be 16e2 7c3d c945 e0be
000000b0: 1656 08bc ff0c 1d3d f9f2 973e 7df9 b4bc
000000c0: d141 823e 8387 c5bd 7170 18bc 1ada 423e
000000d0: 3f48 303e 8f74 583e 75a0 9dbe ed55 5fbd
000000e0: 8568 ad3d d06a b83d 1de0 973e 25b3 a13d
000000f0: c409 6a3d 02d8 4cbe e2b2 8bbd 3e08 203e
00000100: 931a ba3d f3d3 14bd e5cd 483e 8c9f b43e
00000110: 6632 ea3d 0087 18bf c76c 97be 3088 b5bc
00000120: 1ded 913c e33d 493e dbd1 533e 9102 673e
00000130: 7255 703e f643 a2be 36c1 7dbd 8512 0fbe
00000140: 6b85 23be c926 d7be e813 4f3e 93e2 893e
00000150: cc25 3f3e 951a 523e 1051 39be 275d 8f3e
00000160: e010 c43c 310d 99be 5033 b13e 7714 803e
00000170: fcc2 cebe ead4 853e a98a b13d d8f9 05bf
00000180: 1e85 3c3e bb50 ef3c cfb1 98be 15e2 8cbe
00000190: 8f9a 553e a2e3 9e3e d457 83be e97d c3be
000001a0: 8b3b 4dbd 3917 7cbd db53 acbe fa97 babe
000001b0: e332 c93e caf0 e43c efd2 f8be a868 ed3e
000001c0: d23a 8bbe cd80 afbe 852b cebd b514 d3be
000001d0: 14ce 09be cc4e 3b3b 46ec a6bd 042a 01bf
000001e0: a0de 043e 01fd 213e 0c49 d7be 6a53 af3e
000001f0: cb0e b23e 69c5 5cbb 5f55 253d 88fb 983e
00000200: 0ba7 c0be 70ad e13d 1877 42bd 2df6 95be
00000210: e3e0 c73e fcc3 27bb 3705 5bbe 050d 5b3e
00000220: 1767 653e 7648 1fbe 39f8 86bd be21 973e
00000230: 739b 823e 44f1 efbe 6e0b 74be 3241 a4bd
00000240: 16a5 98be c6db 823e 910e 0bbe b50d c2bd
00000250: c61a 4d3e ed1a cc3d 8210 563e 944e 4a3d
00000260: dfe1 073e 3d50 633e e29c ac3b f012 ae3d
00000270: c4fc 9d3d 8f43 3b3e 85dc aebe 66e6 833e
00000280: 9da9 66be 080e 8dbe c399 05be 7241 803e
00000290: 14bb ae3d 96cf c9be 1ad4 2b3e 4fde 8d3e
000002a0: b6f6 9bbe a24c b1bc 9f95 1e3e 367e 613e
000002b0: 8ba2 29be 6c74 d5be 55f2 0e3e e7b2 cb3e
000002c0: a206 b1be ca67 93bd 1023 1c3e 40bf a83e
000002d0: 722e 98bd 7b55 f2be 9539 8abe 6a3d b13e
000002e0: 7dc6 9dbe 938f b43e 2d94 b43e b266 653e
000002f0: 0d7c 69be 6ae6 9abe 5afa 8cbe 1c6b e6be
00000300: f7bc 2a3e 4d58 843d 1945 82bd 8298 2e3e
00000310: a14f 1a3e 19da bf3e 19f9 323d 9983 f9be
00000320: 54da b9be 8a95 e1bd 22e0 60be 9a1a f73d
00000330: 0866 8a3e dab8 f03e 0fba 813e 602d 623d
00000340: 65da 383d bc21 15be 52de a9be b039 81be
00000350: d173 d0be c421 58bb 0732 c5be 46d8 62be
00000360: c334 76be 2784 dbbe b826 213d 0776 5cbe
00000370: 87c6 943e 52fd 373d 561f bcbd 07e3 df3e
00000380: a461 c73c 0e61 b0be ddf8 9ebd 7ca9 99be
00000390: 147c bfbc f80e b5be 8b18 bbbe 279a 1fbe
000003a0: 4e72 f43d bb62 b7be 67fb afbe 5393 803e
000003b0: b833 063d 91db 1f3e 972b 07be 2dbe a73e
000003c0: 867c 413d 1d60 c0be 714d c5bd 995e a3ba
000003d0: 5129 ab3e fbf5 cb3e 0303 c0be f9cc 14bf
000003e0: 6395 96be a2d5 833e cdf5 013e 901c 34be
000003f0: 418d d7be a098 b63d ab3e 593e 8f87 76be

conv1.bias f4 [32]
-0.23252897 0.13081735 -0.12153765 0.02829354 0.11329109 -0.3708866 -0.06820494 0.043005202
-0.36443546 -0.028044848 -0.038989693 0.1798989 -0.15630706 0.033213682 0.06749477 -0.0930576
-0.3013301 -0.008567048 -0.29088753 -0.25011426 -0.040367313 0.23375446 -0.07816129 -0.15023187
0.037775412 -0.099305175 -0.05756829 -0.1209819 -0.28910142 -0.27508524 -0.22177891 0.031130897
00000000: 131c 6ebe fcf4 053e bbe8 f8bd dbc7 e73c
00000010: 2905 e83d d9e4 bdbe 08af 8bbd 3926 303d
00000020: 4997 babe 4fbe e5bc a8b3 1fbd 6b37 383e
00000030: f50e 20be 120b 083d b33a 8a3d fc94 bebd
00000040: f047 9abe ce5c 0cbc 36ef 94be fa0e 80be
00000050: 3258 25bd 545d 6f3e 0713 a0bd 62d6 19be
00000060: 64ba 1a3d 8360 cbbd bacc 6bbd 5cc5 f7bd
00000070: 1a05 94be f9d7 8cbe 031a 63be 3906 ff3c

conv2.weight f4 [64, 32, 3, 3]
-0.050635666 -0.132403 -0.015123328 -0.08696502 -0.19502623 -0.039622176 -0.17326541 0.041224252
0.071088724 -0.0182747 -0.15195785 -0.09051277 -0.071275555 -0.06778984 0.050281312 0.021024529
0.10368124 -0.012536525 -0.07558747 -0.04534667 -0.027974492 0.035781693 -0.09973314 -0.1275192
-0.009373668 -0.1095693 -0.04036515 -0.009790719 0.06689955 0.039157916 -0.11068491 0.008310309
0.036652774 0.008936101 -0.072543085 -0.020103877 0.0003155649 -0.10216183 0.022098865 -0.1295039
0.020735454 0.0151101705 0.17054126 0.061897 -0.06999574 -0.022570783 0.039074324 0.03263004
0.028362771 0.023351064 -0.017205134 0.060447603 -0.08053175 -0.14386769 -0.06296617 -0.009102302
0.005951109 0.09028084 0.109558225 0.0044180085 0.12156208 -0.049160324 -0.090631366 0.014073332
-0.0011714405 0.05377428 -0.20351271 0.05719903 0.044817377 0.11579046 0.02842983 -0.014468971
0.027243383 -0.040333666 0.05672089 -0.019976448 0.017693888 0.0545606 0.11080346 -0.039149806
-0.15484858 -0.13453694 0.053920873 -0.0060078194 0.114984795 0.047457717 0.007979161 0.05761487
-0.047458716 -0.14896685 0.05406083 -0.007534912 0.009363484 -0.16116364 0.013871127 0.04279836
0.094012156 0.02064845 -0.09173321 -0.0005081299 -0.079392955 -0.05509844 -0.13708621 -0.16840075
-0.083468206 -0.09479651 0.06272824 0.053776313 -0.05030372 0.0143981585 0.012667557 0.009917923
0.13392559 0.08350379 0.13493368 0.052074887 -0.019468894 -0.01385378 -0.05325802 -0.064562164
-0.19622822 -0.26493323 -0.079692535 -0.1448194 -0.1472603 0.05735754 -0.035275985 -0.09878029
0.0656265 -0.06735349 -0.063135736 0.08400103 0.025288034 -0.1171965 -0.097466856 0.07379814
0.079199694 -0.010101506 -0.29610443 -0.034464065 0.049646046 0.076527715 0.11132113 0.07652895
-0.031329185 0.024973573 -0.03541851 -0.0021681515 -0.028173784 -0.00907609 0.019251158 -0.10030288
-0.06312921 0.017404312 -0.04380375 0.1025908 -0.04421435 0.042226892 -0.019815406 0.12805693
-0.06243954 -0.1522201 0.0032246106 0.08820765 0.040517483 -0.041104075 -0.12276662 -0.0112811215
-0.12903532 -0.12168425 0.047505546 0.06486891 -0.01605849 0.024411255 -0.16016753 -0.100812614
0.017345369 -0.04001308 -0.0706413 -0.043088917 0.045292918 -0.0047969013 -0.08564146 0.06465852
-0.15482914 -0.16210301 0.075547054 -0.12952617 -0.033389393 0.004319184 0.0016988545 -0.14402305
0.023159765 -0.13160324 -0.09171204 -0.03610449 -0.007994047 0.001853726 -0.036743425 0.09137795
-0.16449909 0.048261102 0.00919075 -0.08314422 -0.095979124 0.013594728 0.060011227 0.011614785
-0.08266129 -0.043483507 -0.09854075 -0.13801213 0.028937565 -0.013856402 0.12564236 -0.03302156
0.053148966 0.09907913 -0.120247394 0.08415335 -0.006147786 -0.10129807 -0.05032763 -0.052648943
-0.0073242905 -0.057815053 -0.14130062 -0.0025734298 -0.10971309 -0.12842838 -0.03157856 -0.15600033
0.014204043 0.03242948 0.05147314 0.0244796 0.05353078 0.063040465 0.09385255 0.067348294
0.013286744 0.034737483 0.086207956 0.07266665 -0.054971226 -0.23755343 -0.17439222 -0.25349566
-0.011569012 -0.062419962 -0.050526656 -0.041307252 0.0060534817 0.07471877 -0.03201147 0.10435638
00000000: 5867 4fbd a794 07be d6c7 77bc b71a b2bd
00000010: f5b4 47be dd4a 22bd 7d6c 31be c3da 283d
00000020: f796 913d d3b4 95bc d79a 1bbe c25e b9bd
00000030: ebf8 91bd 66d5 8abd c7f3 4d3d a23b ac3c
00000040: d456 d43d ff65 4dbc 9acd 9abd 6ebd 39bd
00000050: c32a e5bc d38f 123d e340 ccbd 6594 02be
00000060: 0394 19bc df65 e0bd ed55 25bd 4069 20bc
00000070: a202 893d 0d64 203d c5ae e2bd f627 083c
00000080: 3821 163d b968 123c 7891 94bd e3b0 a4bc
00000090: 6772 a539 393a d1bd ae08 b53c ac9c 04be
000000a0: 66dd a93c a690 773c 5ea2 2e3e b587 7d3d
000000b0: ed59 8fbd 5de6 b8bc 660c 203d 14a7 053d
000000c0: 0b59 e83c bb4a bf3c c8f1 8cbc e897 773d
000000d0: d5ed a4bd 0d52 13be 68f4 80bd d221 15bc
000000e0: 8501 c33b 29e5 b83d 1060 e03d f1c4 903b
000000f0: 8af5 f83d 565c 49bd f09c b9bd d593 663c
00000100: 058b 99ba 6b42 5c3d a365 50be 8849 6a3d
00000110: 6d92 373d 8c23 ed3d ade5 e83c 430f 6dbc
00000120: 842d df3c ea34 25bd 2a54 683d a6a5 a3bc
00000130: c6f2 903c f07a 5f3d edec e23d 8c5b 20bd
00000140: a090 1ebe 0dc4 09be 22dc 5c3d 3edd c4bb
00000150: 267d eb3d 0663 423d 07bb 023c 92fd 6b3d
00000160: 1264 42bd c48a 18be e46e 5d3d 6ce7 f6bb
00000170: 4c69 193c 1508 25be b943 633c 554d 2f3d
00000180: 7289 c03d f026 a93c 9fde bbbd 0534 05ba
00000190: c698 a2bd e7ae 61bd 5460 0cbe 3f71 2cbe
000001a0: 61f1 aabd ac24 c2bd aa77 803d 8d44 5c3d
000001b0: 460b 4ebd 41e6 6b3c 968b 4f3c c97e 223c
000001c0: ca23 093e 0904 ab3d 0e2c 0a3e 7a4c 553d
000001d0: 3b7d 9fbc f7fa 62bc 1525 5abd 2b39 84bd
000001e0: 0df0 48be 54a5 87be d735 a3bd 894b 14be
000001f0: 67cb 16be bdef 6a3d 8d7d 10bd 524d cabd
00000200: 3067 863d a0f0 89bd 4f4d 81bd bb08 ac3d
00000210: da28 cf3c b804 f0bd b49c c7bd 7b23 973d
00000220: 7333 a23d c980 25bc 009b 97be 312a 0dbd
00000230: a759 4b3d 90ba 9c3d 55fc e33d 36bb 9c3d
00000240: 0853 00bd 6195 cc3c 0013 11bd 8c17 0ebb
00000250: b5cc e6bc e1b3 14bc 9bb4 9d3c 996b cdbd
00000260: e349 81bd 7d93 8e3c 906b 33bd 201b d23d
00000270: 1b1a 35bd 1bf6 2c3d eb53 a2bc 5b21 033e
00000280: 9ac0 7fbd 96df 1bbe fd53 533b 36a6 b43d
00000290: a9f5 253d bf5c 28bd 116d fbbd 74d4 38bc
000002a0: d621 04be 9835 f9bd 2d95 423d fed9 843d
000002b0: 188d 83bc 1dfa c73c f502 24be d876 cebd
000002c0: e017 8e3c c1e4 23bd 63ac 90bd 017e 30bd
000002d0: 1185 393d 532f 9dbb ca64 afbd b06b 843d
000002e0: 888b 1ebe 55fe 25be 6ab8 9a3d 82a2 04be
000002f0: 51c3 08bd f187 8d3b 19ac de3a c77a 13be
00000300: 8cb9 bd3c 00c3 06be 86d3 bbbd 4de2 13bd
00000310: 77f9 02bc b9f8 f23a 4680 16bd 5d24 bb3d
00000320: 7372 28be 6fad 453d cd94 163c 8447 aabd
00000330: b490 c4bd 6cbc 5e3c 55ce 753d f04b 3e3c
00000340: 534a a9bd c31b 32bd bccf c9bd 0d53 0dbe
00000350: 790e ed3c f605 63bc 64a8 003e 9e41 07bd
00000360: bbb2 593d 00ea ca3d 4444 f6bd 9758 ac3d
00000370: 5e73 c9bb 5d75 cfbd 5824 4ebd 6ba6 57bd
00000380: 9a00 f0bb 7acf 6cbd 1cb1 10be fda6 28bb
00000390: 42b1 e0bd bb82 03be 8558 01bd 8dbe 1fbe
000003a0: 13b8 683c c6d4 043d 80d5 523d 7189 c83c
000003b0: 1743 5b3d 5c1b 813d c435 c03d e7ed 893d
000003c0: a5b0 593c e448 0e3d cc8d b03d 41d2 943d
000003d0: 8229 61bd 3541 73be e093 32be 2fca 81be
000003e0: f48b 3dbc 13ac 7fbd 0af5 4ebd cb31 29bd
000003f0: 495c c63b 2806 993d 761e 03bd ccb8 d53d

conv2.bias f4 [64]
-0.041471917 0.007886332 0.01839232 0.005236935 -0.058161285 0.010580907 -0.058449343 -0.082286775
-0.088398114 -0.014605604 0.047972243 -0.0027629433 -0.030264622 -0.014530067 0.021056065 0.038075507
-0.055970863 -0.079392925 -0.007712692 -0.0037932263 -0.094682716 -0.027466059 -0.07048489 -0.016682502
-0.0133640915 0.033181835 -0.011477266 0.025633594 0.019622872 0.008004617 -0.010544337 -0.056333505
0.033338174 0.044932753 -0.012519664 -0.034209367 0.017442374 -0.010548154 -0.060300246 -0.055309724
-0.042054698 -0.019389244 -0.03280593 -0.030810373 -0.026305443 -0.0794801 0.0003976179 -0.06848734
-0.023676988 0.010921648 -0.055813648 -0.011437775 -0.05010841 -0.04833205 -0.045791436 -0.04258137
-0.060595468 -0.0017427229 -0.03383107 -0.021652903 -0.016814843 0.013805997 -0.029989978 -0.023389468
00000000: 75de 29bd ad35 013c 7eab 963c 989a ab3b
00000010: 873a 6ebd 8a5b 2d3c 9468 6fbd f885 a8bd
00000020: 120a b5bd 584c 6fbc 8b7e 443d 7f12 35bb
00000030: 83ed f7bc 850f 6ebc c57d ac3c 10f5 1b3d
00000040: b441 65bd c298 a2bd c0ba fcbb c797 78bb
00000050: 03e9 c1bd 8000 e1bc 625a 90bd bea9 88bc
00000060: 10f5 5abc ade9 073d 250b 3cbc 8bfd d13c
00000070: 25c0 a03c cc25 033c 28c2 2cbc f6bd 66bd
00000080: 9c8d 083d 680b 383d 471f 4dbc 1f1f 0cbd
00000090: 4fe3 8e3c 2ad2 2cbc 64fd 76bd 738c 62bd
000000a0: 8c41 2cbd 31d6 9ebc 835f 06bd 0966 fcbc
000000b0: 837e d7bc 76c6 a2bd 5f77 d039 1743 8cbd
000000c0: 3ef6 c1bc b6f0 323c da9c 64bd 8165 3bbc
000000d0: 7a3e 4dbd d4f7 45bd cd8f 3bbd cd69 2ebd
000000e0: f432 78bd 146c e4ba 7392 0abd 6e61 b1bc
000000f0: 48bf 89bc 8c32 623c 8bad f5bc 459b bfbc

fc1.weight f4 [128, 1600]
0.008514151 -0.020761644 -0.0047388626 0.009831362 0.006594795 0.018149177 0.013119533 -0.024458466
0.008805489 -0.008810403 -0.025128232 -0.014187416 0.012943814 0.005268963 -0.017114138 -0.020843564
0.002309391 0.00014767774 -0.016649486 0.009048512 0.020721016 -0.014947445 -0.0029549398 0.0006799057
-0.004151166 0.0058493894 0.0038243132 -0.0040483405 -0.028334772 -0.0006056043 -0.020060522 -0.024558757
0.014874665 -0.023842191 -0.015452329 -0.004723154 -0.019589085 0.014072363 -0.0011315376 0.012816222
-0.013259901 0.021682078 0.00082507904 -0.02974433 -0.023644812 0.00574423 -0.00867045 0.009127006
0.01096956 0.0033878866 0.017878158 0.0032355888 0.027203051 0.011011136 -0.020864142 -0.059079647
-0.012625273 0.010787008 -0.012612556 0.0018304965 -0.03215795 -0.021050693 -0.026119638 -0.014768897
-0.004019933 0.01471645 -0.002267052 -0.041728742 0.009387173 -0.0035102968 0.022612173 -0.008273264
-0.02258445 0.00708343 0.003541827 -0.0031285528 -0.021599958 0.02073229 0.023056174 0.019381763
-0.0054212604 0.009958372 -0.0037826635 -0.0039324425 0.0051458143 -0.011614844 0.006772982 0.011838736
-0.030061807 -0.018639889 -0.00028450415 -0.0055019204 0.018520208 -0.017017001 0.024841225 0.0011194851
-0.017317854 0.014712316 -0.019183943 -0.0073612984 0.009503315 -0.023011984 0.0042341165 -0.018757755
-0.018688133 -0.0056338147 -0.0003932952 0.01632139 -0.028524593 -0.0026984324 -0.014851051 -0.011475297
-0.016593669 -0.0011992218 -0.008661523 -0.024021026 -0.001531799 -0.025640493 -0.0072112866 -0.0031509462
0.0076463483 -0.03675576 -0.017630687 -0.011264397 -0.013158026 -0.017641835 0.010075113 -0.00023108935
-0.004081879 0.020913307 -0.0024286278 -0.0006399014 -0.0023568165 -0.01361469 -0.005819672 0.0027525807
-0.008950168 -0.029372014 -0.0010448244 -0.013379519 -0.025958108 0.0136714745 -0.01585452 0.0091692405
-0.0048040967 -0.018966204 0.007419437 -0.03110178 -0.031442385 0.01556023 -0.028438069 -0.026303796
-0.0046805893 0.02610268 0.018773938 -0.01708859 -0.030468706 -0.00081951224 -0.004320925 -0.005025237
0.006802335 -0.009610131 0.0047360915 -0.002658746 0.002677074 0.0054473416 0.006308301 0.012670017
-0.016423523 -0.012876802 -0.0037320247 -0.020477714 0.017375577 0.011682841 -0.007606236 -9.655186e-05
-0.028145099 0.008455967 -0.027365007 -0.01872028 -0.0189262 0.010079559 -0.024056261 0.005162371
-0.01889389 -0.0024537323 0.0015248295 -0.01626445 -0.019042443 -0.013273231 -0.009858242 0.021981992
-0.0038240901 -0.037072178 0.020760613 -0.019056022 -0.019573117 0.0067701126 -0.022236789 0.0024120912
0.01390234 -0.02928886 0.018164553 -0.003469592 -0.03836596 -0.0031176696 -0.012008653 -0.00565173
-0.028116763 -0.025976863 0.0026430627 0.02256957 -0.008790416 -0.039527554 -0.0035088575 -0.0070042196
-0.006222654 -0.04302771 -0.015307223 -0.00091242365 -0.0020800584 -0.01050926 -0.03537028 -0.031956643
-0.0032213132 -0.028834978 0.00549395 -0.020602927 -0.009489207 0.012010571 -0.03305001 -0.020356053
-0.016333872 -0.047657467 -0.026142864 -0.0037162271 -0.007935861 0.022411782 -0.0035920206 0.016507857
0.0039467714 -0.023677763 0.0012105668 -0.032388233 0.0019528598 0.0034049468 0.00086278544 -0.020694893
0.005156435 0.024711387 -0.02383623 0.019885235 -0.0037864493 -0.017514355 -0.010780968 0.0046559423
00000000: f07e 0b3c 5314 aabc 7648 9bbb b913 213c
00000010: 2619 d83b 95ad 943c 4ff3 563c 1f5d c8bc
00000020: e644 103c 8259 10bc b9d9 cdbc 5672 68bc
00000030: 4a12 543c 44a7 ac3b f332 8cbc 1fc0 aabc
00000040: 2759 173b f1d9 1a39 8164 88bc 3640 143c
00000050: 1fbf a93c 21e6 74bc aaa7 41bb b33b 323a
00000060: 8106 88bb 3cac bf3b 54a1 7a3b f1a7 84bb
00000070: 531e e8bc 6bc1 1eba f755 a4bc 722f c9bc
00000080: deb4 733c b350 c3bc c42b 7dbc b0c4 9abb
00000090: 4a79 a0bc c58f 663c 1a50 94ba 22fb 513c
000000a0: 0e40 59bc 9d9e b13c 1e4a 583a 62aa f3bc
000000b0: c4b2 c1bc 183a bc3b 810e 0ebc 7089 153c
000000c0: abb9 333c 4e07 5e3b 3775 923c 2c0c 543b
000000d0: efd8 de3c 0d68 343c 47eb aabc 80fd 71bd
000000e0: 3cda 4ebc febb 303c e5a4 4ebc 45ed ef3a
000000f0: 0eb8 03bd 8172 acbc daf8 d5bc 3ef9 71bc
00000100: a4b9 83bb 441d 713c d292 14bb c2eb 2abd
00000110: a8cc 193c 020d 66bb 2a3d b93c 968c 07bc
00000120: 0603 b9bc 1e1c e83b ff1d 683b 6808 4dbb
00000130: 65f2 b0bc c3d6 a93c 4de0 bc3c 81c6 9e3c
00000140: d4a4 b1bb 7128 233c 90e6 77bb b8db 80bb
00000150: 389e a83b 304c 3ebc e4ef dd3b 42f7 413c
00000160: 2e44 f6bc aeb2 98bc 8029 95b9 7449 b4bb
00000170: b1b7 973c 3d67 8bbc d37f cb3c b0bb 923a
00000180: 2cde 8dbc ed0b 713c a527 9dbc 0c37 f1bb
00000190: cbb3 1b3c a183 bcbc 58be 8a3b dda9 99bc
000001a0: db17 99bc dd9b b8bb 3033 ceb9 70b4 853c
000001b0: 68ac e9bc 2fd8 30bb d351 73bc e202 3cbc
000001c0: 72ef 87bc 352f 9dba 10e9 0dbc bec7 c4bc
000001d0: a5c6 c8ba 030c d2bc a84c ecbb 1b80 4ebb
000001e0: 388e fa3b 358d 16bd 3b6e 90bc 4e8e 38bc
000001f0: c394 57bc 9c85 90bc 1612 253c 9350 72b9
00000200: 48c1 85bb 6252 ab3c 9d29 1fbb 0ebf 27ba
00000210: d274 1abb 2610 5fbc f2b2 bebb a464 343b
00000220: baa3 12bc 949d f0bc 7df2 88ba c535 5bbc
00000230: 19a6 d4bc 52fe 5f3c 57e1 81bc 953a 163c
00000240: af6b 9dbb 035f 9bbc c01e f33b 29c9 febc
00000250: bbc9 00bd 56f0 7e3c f4f6 e8bc 0f7b d7bc
00000260: a15f 99bb 4ad5 d53c cdcb 993c 5ffd 8bbc
00000270: 8299 f9bc 89d4 56ba 8c96 8dbb beaa a4bb
00000280: 1fe6 de3b d073 1dbc 3731 9b3b 5b3e 2ebb
00000290: d971 2f3b 9d7f b23b ddb5 ce3b e795 4f3c
000002a0: a08a 86bc 39f9 52bc fc94 74bb e1c0 a7bc
000002b0: 3a57 8e3c 6369 3f3c bb3d f9bb e37b cab8
000002c0: 8d90 e6bc e58a 0a3c 942c e0bc 465b 99bc
000002d0: 1e0b 9bbc bc24 253c a311 c5bc 1b29 a93b
000002e0: 5cc7 9abc ccce 20bb cadc c73a 063d 85bc
000002f0: e6fe 9bbc f777 59bc 7784 21bc 9413 b43c
00000300: 969d 7abb ffd8 17bd 2912 aa3c 601b 9cbc
00000310: cd57 a0bc d2d7 dd3b ed29 b6bc 2d14 1e3b
00000320: a4c6 633c 31ef efbc d4cd 943c 1862 63bb
00000330: a025 1dbd d151 4cbb f1bf 44bc 2632 b9bb
00000340: 2055 e6bc 6ecd d4bc 3c37 2d3b d2e3 b83c
00000350: ad05 10bc a5e7 21bd dcf4 65bb a783 e5bb
00000360: 68e7 cbbb d33d 30bd 26cb 7abc b72f 6fba
00000370: 9751 08bb 082f 2cbc 6de0 10bd f8e4 02bd
00000380: ab1c 53bb 5537 ecbc 9806 b43b 78c7 a8bc
00000390: 9e78 1bbc fcc7 443c 735f 07bd bdc1 a6bc
000003a0: 9dce 85bc 7a34 43bd 8f29 d6bc f28b 73bb
000003b0: 6a05 02bc ea98 b73c 1b68 6bbb 7c3b 873c
000003c0: eb53 813b def7 c1bc e2ab 9e3a 86a9 04bd
000003d0: 1af7 ff3a 8725 5f3b 8d2c 623a 5688 a9bc
000003e0: 50f7 a83b 896f ca3c 3344 c3bc 5ce6 a23c
000003f0: 1426 78bb 447a 8fbc a8a2 30bc e090 983b

fc1.bias f4 [128]
0.0077333557 0.008150565 -0.0008615419 0.034179386 -0.028920628 -0.02372622 -0.058121946 -0.017755445
0.013598925 0.0042514177 0.029316261 0.0013890082 0.02167833 -0.016749946 0.033307187 -0.024415508
0.005583782 -0.018458256 -0.014530444 -0.012456971 -0.0061557326 -0.0160287 7.1995455e-05 -0.0015808607
0.03347152 -0.04249891 0.008081153 0.041604735 -0.055816386 -0.0016941502 -0.0061013536 -0.02167499
-0.005500604 0.00705436 -0.008680987 0.008049082 0.04046255 -0.020208016 0.00033036192 0.0075772973
-0.007836421 0.0274333 0.040318538 -0.016233448 -0.019633533 -0.029645558 0.032143798 0.0018001316
-0.026219925 -0.025553336 -0.035663642 0.0036017983 0.036352124 -0.052159075 -0.014922749 -0.00366306
0.0053545395 0.0070881513 0.02493719 0.007601238 -0.013140305 0.0007133544 -0.019593893 0.010201897
-0.044121813 -0.02182014 -0.050297808 0.026300851 0.000619176 -0.03736086 -0.025656996 0.029167144
-0.033082087 -0.029349616 0.010087264 -0.038434356 -0.02612492 -0.013777011 0.005000769 0.007117045
0.0057628597 0.0060602897 0.02850585 -0.01916991 -0.04125242 -0.0051668547 -0.010639121 0.004645814
0.022221908 0.004333034 0.01827743 0.0016174497 0.00020655185 0.033889573 -0.023227926 -0.00944181
-0.00722001 -0.0014996014 -0.02913708 -0.036024682 0.015151435 -0.01736136 -0.009634327 0.013855465
-0.0054715094 0.016177947 0.00809874 0.013465377 0.026522512 -0.00013906551 -0.021058777 -0.02877038
0.012091964 0.0040603024 -0.048343204 0.06669988 0.021801557 -0.019727333 -0.011299562 -0.007463985
0.037937764 0.027024254 -0.026851997 -0.036485128 0.004011985 0.014446772 0.008447406 -0.009082234
00000000: 1768 fd3b f389 053c 19d9 61ba afff 0b3d
00000010: f4ea ecbc 7d5d c2bc 4711 6ebd de73 91bc
00000020: 07ce 5e3c 7a4f 8b3b a828 f03c 620f b63a
00000030: c196 b13c 2f37 89bc 1e6d 083d 0803 c8bc
00000040: 29f8 b63b c535 97bc 1911 6ebc 5318 4cbc
00000050: 07b6 c9bb 9f4e 83bc 44fc 9638 e234 cfba
00000060: 6f19 093d 5613 2ebd d066 043c ba69 2a3d
00000070: b99f 64bd 3f0e deba dded c7bb c08f b1bc
00000080: 693e b4bb 4328 e73b b33a 0ebc 4ce0 033c
00000090: 0fbc 253d 488b a5bc 6d34 ad39 fa4a f83b
000000a0: 5564 00bc cdbb e03c 0d25 253d 02fc 84bc
000000b0: 81d6 a0bc 3edb f2bc 37a9 033d 65f2 eb3a
000000c0: 2bcb d6bc 3b55 d1bc 0a14 12bd 260c 6c3b
000000d0: f7e5 143d c1a4 55bd 8c7e 74bc f30f 70bb
000000e0: 2275 af3b b943 e83b 1449 cc3c ce13 f93b
000000f0: 6f4a 57bc 6700 3b3a 5f83 a0bc db25 273c
00000100: 13b9 34bd 26c0 b2bc 1305 4ebd e274 d73c
00000110: 3350 223a b307 19bd 9f2e d2bc efef ee3c
00000120: 1581 07bd 9b6e f0bc 0d45 253c 586d 1dbd
00000130: ee03 d6bc f9b8 61bc 7edd a33b 1a36 e93b
00000140: 5fd6 bc3b 6595 c63b 1a85 e93c 370a 9dbc
00000150: 4cf8 28bd b84e a9bb b54f 2ebc ea3b 983b
00000160: b80a b63c 20fc 8d3b 8dba 953c 9b00 d43a
00000170: d795 5839 cbcf 0a3d 7e48 bebc d2b1 1abc
00000180: d595 ecbb 468e c4ba e3b0 eebc 9e8e 13bd
00000190: b93d 783c 6939 8ebc 4cd9 1dbc 0802 633c
000001a0: 594a b3bb 9d87 843c 94b0 043c e29d 5c3c
000001b0: bd45 d93c 1dd2 11b9 7583 acbc dcaf ebbc
000001c0: 5f1d 463c 490c 853b 8603 46bd f299 883d
000001d0: 2e99 b23c 379b a1bc cc21 39bc 7294 f4bb
000001e0: a164 1b3d f861 dd3c b8f8 dbbc 6e71 15bd
000001f0: f876 833b 27b2 6c3c fd66 0a3c a7cd 14bc

fc2.weight f4 [10, 128]
0.0009179755 -0.20537706 0.047572937 -0.0044006645 0.06241334 0.0576497 -0.08277425 0.028460464
-0.0840034 0.08042268 0.022272838 0.081229515 0.09239044 -0.014546423 -0.045224175 0.0440126
9.4730334e-05 -0.011259715 -0.034865066 -0.055138092 0.16619971 -0.00035127814 -0.07424301 0.05107916
-0.10407058 -0.031175459 -0.025305508 0.053272985 -0.07614211 -0.006305599 -0.14564705 -0.026964322
-0.049593493 0.081195526 0.027234692 -0.13366555 0.09407039 -0.05394131 -0.05683877 0.022670884
-0.11367611 0.067025706 0.07581016 -0.19208714 0.04032527 -0.036508504 -0.2455148 0.095430516
-0.088241205 -0.032299362 -0.0026509236 0.05944404 0.10050178 -0.085315034 -0.021792654 0.00648533
-0.029317448 0.07761219 0.1316013 -0.15983361 -0.048084583 0.08901421 0.022559175 -0.011206928
-0.00077941595 0.0066748946 -0.10606985 0.055315156 0.031824987 -0.13599283 0.020000728 0.036913447
0.06955527 -0.040445127 -0.05339832 -0.03778366 -0.091152206 -0.030089796 0.072269015 0.034321208
-0.05027273 -0.08320201 -0.1305894 0.05480991 0.043588266 0.103765845 0.06032882 0.01863001
0.11621004 -0.049229417 0.03537129 0.09970074 -0.0245573 0.08352976 -0.087659724 0.07158133
0.031141086 -0.23019592 0.032172643 -0.038746558 -0.0633773 -0.0031619605 -0.16327152 -0.027970925
-0.087545015 -0.14227757 -0.025732288 -0.03133658 -0.12151766 0.07866478 -0.06673162 0.023427654
0.06452204 0.11557158 -0.03300509 0.112838335 -0.004754812 -0.04947798 0.0058404366 0.09966283
-0.10714224 -0.031970903 0.035042524 -0.44395143 0.077096984 -0.050649326 0.056489397 -0.073834926
0.049502376 -0.027831957 -0.06786834 0.044895258 -0.044912476 0.02097965 -0.09111714 0.061190084
0.044192597 0.17321186 0.04279292 0.0035410908 0.110242024 -0.06955312 0.089945205 0.053186793
0.0766131 0.11988996 0.018000098 -0.07612419 0.04043612 -0.03692711 0.07189499 -0.0053344737
0.029094864 -0.10485817 -0.04073607 0.02925328 -0.1080719 -0.018068315 -0.0027418216 -0.024056038
0.07449843 -0.07202267 0.032053154 0.056584716 -0.18972413 0.04270663 0.024879694 -0.063123904
-0.13301787 0.088616244 -0.010182861 -0.11800787 -0.12685491 0.0070857494 0.046003316 -0.18280508
-0.03199229 -0.036095947 -0.13622315 -0.060654484 0.13014083 0.02031545 -0.033229414 -0.0043182974
-0.06754483 0.07254728 -0.05986758 -0.00901206 -0.027622422 0.06766381 -0.099206775 0.116114125
-0.1060448 -0.1769081 -0.14593707 0.07907837 -0.0661471 -0.059689064 0.047310628 0.076415986
-0.046811223 -0.023753874 -0.004697569 -0.0437227 -0.071763374 0.012915034 -0.036829323 0.059983175
-0.0075942874 0.050648894 0.11587375 -0.010961538 0.056362186 -0.1404909 -0.07752348 0.0070483685
0.090354905 0.06684563 -0.009310662 0.029099116 0.015459021 -0.019602068 0.06613001 -0.124587014
0.0030263024 0.20152247 0.0708244 -0.14981385 0.02977832 -0.04172858 0.10357324 -0.032728627
0.06268231 0.1606604 0.053641185 0.01549677 0.08078666 0.04096511 -0.012668809 -0.04979129
0.008894832 -0.042460963 -0.030822687 0.10729504 0.03573346 -0.13646345 -0.085759565 -0.00173271
0.07980592 -0.1630531 -0.0950633 0.04806974 -0.12277813 -0.09388842 -0.06978327 -0.032989934
00000000: 4ba4 703a 5d4e 52be d7db 423d 7333 90bb
00000010: 21a5 7f3d 1822 6c3d 8c85 a9bd eb25 e93c
00000020: f909 acbd a5b4 a43d 8775 b63c a95b a63d
00000030: 3337 bd3d 1f54 6ebc fc3c 39bd 8e46 343d
00000040: f6a9 c638 ab7a 38bc acce 0ebd 7bd8 61bd
00000050: 4230 2a3e c12b b8b9 b80c 98bd 6238 513d
00000060: f522 d5bd ad63 ffbc 7f4d cfbc c634 5a3d
00000070: 65f0 9bbd 339f cebb 8024 15be 48e4 dcbc
00000080: 8c22 4bbd d749 a63d 4a1b df3c 9fdf 08be
00000090: faa7 c03d 90f1 5cbd c5cf 68bd 4ab8 b93c
000000a0: 05cf e8bd c644 893d 5b42 9b3d 7eb2 44be
000000b0: 1c2c 253d f189 15bd 3b68 7bbe 1371 c33d
000000c0: ceb7 b4bd 564c 04bd 1ebb 2dbb 987b 733d
000000d0: e1d3 cd3d a6b9 aebd 8286 b2bc e482 d43b
000000e0: 252b f0bc 24f3 9e3d 7ec2 063e 6cab 23be
000000f0: 57f4 44bd 154d b63d 05ce b83c 439d 37bc
00000100: b851 4cba 13b9 da3b 263b d9bd 2592 623d
00000110: eb5a 023d b441 0bbe 91d8 a33c 8e32 173d
00000120: fe72 8e3d caa9 25bd 32b8 5abd 0ac3 1abd
00000130: 02ae babd e07e f6bc c701 943d 6594 0c3d
00000140: c7ea 4dbd d165 aabd 3ab9 05be 5b80 603d
00000150: 9c89 323d 3083 d43d 5a1b 773d f69d 983c
00000160: 88ff ed3d c9a4 49bd 7ce1 103d e72f cc3d
00000170: 642c c9bc a711 ab3d f186 b3bd 3b99 923d
00000180: 971b ff3c 7bb8 6bbe 76c7 033d b6b4 1ebd
00000190: f5cb 81bd e538 4fbb a630 27be 4823 e5bc
000001a0: cd4a b3bd 36b1 11be 85cc d2bc c95a 00bd
000001b0: 40de f8bd 001b a13d 96aa 88bd 5aeb bf3c
000001c0: 2224 843d cbb0 ec3d 5830 07bd c917 e73d
000001d0: 41ce 9bbb 6ca9 4abd 2261 bf3b 071c cc3d
000001e0: 646d dbbd ecf3 02bd c088 0f3d 9a4d e3be
000001f0: 06e5 9d3d ab75 4fbd 6d61 673d c436 97bd
00000200: 01c3 4a3d d8ff e3bc 8efe 8abd 17e4 373d
00000210: 25f6 37bd 84dd ab3c a09b babd 74a2 7a3d
00000220: 4c03 353d 735e 313e a147 2f3d a511 683b
00000230: 92c6 e13d de71 8ebd 3135 b83d 65da 593d
00000240: 54e7 9c3d de88 f53d f174 933c 00e7 9bbd
00000250: 58a0 253d e240 17bd ae3d 933d cfcc aebb
00000260: 5a58 ee3c e1bf d6bd deda 26bd 93a4 ef3c
00000270: cd54 ddbd 0104 94bc 22b0 33bb 2b11 c5bc
00000280: a292 983d 9f80 93bd 2b4a 033d 60c5 673d
00000290: 0b47 42be 26ed 2e3d 80d0 cb3c 1b47 81bd
000002a0: d635 08be 6f7c b53d 04d6 26bc 1cae f1bd
000002b0: 41e6 01be 932f e83b f96d 3c3d 4131 3bbe
000002c0: 590a 03bd 58d9 13bd 157e 0bbe d670 78bd
000002d0: a343 053e 966c a63c 911b 08bd 8180 8dbb
000002e0: f254 8abd ab93 943d b537 75bd 52a7 13bc
000002f0: 6b48 e2bc 5393 8a3d ec2c cbbd 3ecd ed3d
00000300: 042e d9bd 6627 35be 8770 15be d7f3 a13d
00000310: 2178 87bd 857c 74bd cac8 413d fc7f 9c3d
00000320: 20bd 3fbd 7c97 c2bc 11ee 99bb 9316 33bd
00000330: adf8 92bd 9499 533c 58da 16bd ebb0 753d
00000340: 80d9 f8bb 3775 4f3d 374f ed3d 0698 33bc
00000350: 09dc 663d d9dc 0fbe a1c4 9ebd 00f6 e63b
00000360: fe0b b93d 5de6 883d bf8b 18bc 4561 ee3c
00000370: d547 7d3c 8494 a0bc 2c6f 873d 7a27 ffbd
00000380: ee54 463b e85b 4e3e 620c 913d cd68 19be
00000390: aaf1 f33c 96eb 2abd 351e d43d 740e 06bd
000003a0: 955f 803d 2984 243e dcb6 5b3d 2ae6 7d3c
000003b0: 7a73 a53d 08cb 273d d690 4fbc f4f1 4bbd
000003c0: a1bb 113c 8ceb 2dbd dc7f fcbc 80bd db3d
000003d0: 405d 123d 13bd 0bbe b6a2 afbd 1a1c e3ba
000003e0: 4971 a33d 64f7 26be 8cb0 c2bd c7e4 443d
000003f0: 1a73 fbbd 9248 c0bd 88ea 8ebd 7420 07bd

fc2.bias f4 [10]
-0.03063331 0.08330678 -0.008382537 -0.06928607 0.0031661522 -0.07839254 -0.116864316 0.09114614
0.036210824 0.052013382
00000000: b5f2 fabc bf9c aa3d e956 09bc dbe5 8dbd
00000010: 387f 4f3b 458c a0bd 8f56 efbd d4aa ba3d
00000020: cd51 143d fc0b 553d
